Some_Previous_Results_of_PPO_tflite/LIC01_AiMV_actor.tflite (tflite, 277380 bytes, 4 tensors)

model/dense_1/BiasAdd/ReadVariableOp f4 [256]
0	0x00000000	0.0
1	0x00000000	0.0
2	0x00000000	0.0
3	0x00000000	0.0
4	0x00000000	0.0
5	0x00000000	0.0
6	0x00000000	0.0
7	0x00000000	0.0
8	0x00000000	0.0
9	0x00000000	0.0
10	0x00000000	0.0
11	0x00000000	0.0
12	0x00000000	0.0
13	0x00000000	0.0
14	0x00000000	0.0
15	0x00000000	0.0
16	0x00000000	0.0
17	0x00000000	0.0
18	0x00000000	0.0
19	0x00000000	0.0
20	0x00000000	0.0
21	0x00000000	0.0
22	0x00000000	0.0
23	0x00000000	0.0
24	0x00000000	0.0
25	0x00000000	0.0
26	0x00000000	0.0
27	0x00000000	0.0
28	0x00000000	0.0
29	0x00000000	0.0
30	0x00000000	0.0
31	0x00000000	0.0
32	0x00000000	0.0
33	0x00000000	0.0
34	0x00000000	0.0
35	0x00000000	0.0
36	0x00000000	0.0
37	0x00000000	0.0
38	0x00000000	0.0
39	0x00000000	0.0
40	0x00000000	0.0
41	0x00000000	0.0
42	0x00000000	0.0
43	0x00000000	0.0
44	0x00000000	0.0
45	0x00000000	0.0
46	0x00000000	0.0
47	0x00000000	0.0
48	0x00000000	0.0
49	0x00000000	0.0
50	0x00000000	0.0
51	0x00000000	0.0
52	0x00000000	0.0
53	0x00000000	0.0
54	0x00000000	0.0
55	0x00000000	0.0
56	0x00000000	0.0
57	0x00000000	0.0
58	0x00000000	0.0
59	0x00000000	0.0
60	0x00000000	0.0
61	0x00000000	0.0
62	0x00000000	0.0
63	0x00000000	0.0
64	0x00000000	0.0
65	0x00000000	0.0
66	0x00000000	0.0
67	0x00000000	0.0
68	0x00000000	0.0
69	0x00000000	0.0
70	0x00000000	0.0
71	0x00000000	0.0
72	0x00000000	0.0
73	0x00000000	0.0
74	0x00000000	0.0
75	0x00000000	0.0
76	0x00000000	0.0
77	0x00000000	0.0
78	0x00000000	0.0
79	0x00000000	0.0
80	0x00000000	0.0
81	0x00000000	0.0
82	0x00000000	0.0
83	0x00000000	0.0
84	0x00000000	0.0
85	0x00000000	0.0
86	0x00000000	0.0
87	0x00000000	0.0
88	0x00000000	0.0
89	0x00000000	0.0
90	0x00000000	0.0
91	0x00000000	0.0
92	0x00000000	0.0
93	0x00000000	0.0
94	0x00000000	0.0
95	0x00000000	0.0
96	0x00000000	0.0
97	0x00000000	0.0
98	0x00000000	0.0
99	0x00000000	0.0
100	0x00000000	0.0
101	0x00000000	0.0
102	0x00000000	0.0
103	0x00000000	0.0
104	0x00000000	0.0
105	0x00000000	0.0
106	0x00000000	0.0
107	0x00000000	0.0
108	0x00000000	0.0
109	0x00000000	0.0
110	0x00000000	0.0
111	0x00000000	0.0
112	0x00000000	0.0
113	0x00000000	0.0
114	0x00000000	0.0
115	0x00000000	0.0
116	0x00000000	0.0
117	0x00000000	0.0
118	0x00000000	0.0
119	0x00000000	0.0
120	0x00000000	0.0
121	0x00000000	0.0
122	0x00000000	0.0
123	0x00000000	0.0
124	0x00000000	0.0
125	0x00000000	0.0
126	0x00000000	0.0
127	0x00000000	0.0
128	0x00000000	0.0
129	0x00000000	0.0
130	0x00000000	0.0
131	0x00000000	0.0
132	0x00000000	0.0
133	0x00000000	0.0
134	0x00000000	0.0
135	0x00000000	0.0
136	0x00000000	0.0
137	0x00000000	0.0
138	0x00000000	0.0
139	0x00000000	0.0
140	0x00000000	0.0
141	0x00000000	0.0
142	0x00000000	0.0
143	0x00000000	0.0
144	0x00000000	0.0
145	0x00000000	0.0
146	0x00000000	0.0
147	0x00000000	0.0
148	0x00000000	0.0
149	0x00000000	0.0
150	0x00000000	0.0
151	0x00000000	0.0
152	0x00000000	0.0
153	0x00000000	0.0
154	0x00000000	0.0
155	0x00000000	0.0
156	0x00000000	0.0
157	0x00000000	0.0
158	0x00000000	0.0
159	0x00000000	0.0
160	0x00000000	0.0
161	0x00000000	0.0
162	0x00000000	0.0
163	0x00000000	0.0
164	0x00000000	0.0
165	0x00000000	0.0
166	0x00000000	0.0
167	0x00000000	0.0
168	0x00000000	0.0
169	0x00000000	0.0
170	0x00000000	0.0
171	0x00000000	0.0
172	0x00000000	0.0
173	0x00000000	0.0
174	0x00000000	0.0
175	0x00000000	0.0
176	0x00000000	0.0
177	0x00000000	0.0
178	0x00000000	0.0
179	0x00000000	0.0
180	0x00000000	0.0
181	0x00000000	0.0
182	0x00000000	0.0
183	0x00000000	0.0
184	0x00000000	0.0
185	0x00000000	0.0
186	0x00000000	0.0
187	0x00000000	0.0
188	0x00000000	0.0
189	0x00000000	0.0
190	0x00000000	0.0
191	0x00000000	0.0
192	0x00000000	0.0
193	0x00000000	0.0
194	0x00000000	0.0
195	0x00000000	0.0
196	0x00000000	0.0
197	0x00000000	0.0
198	0x00000000	0.0
199	0x00000000	0.0
200	0x00000000	0.0
201	0x00000000	0.0
202	0x00000000	0.0
203	0x00000000	0.0
204	0x00000000	0.0
205	0x00000000	0.0
206	0x00000000	0.0
207	0x00000000	0.0
208	0x00000000	0.0
209	0x00000000	0.0
210	0x00000000	0.0
211	0x00000000	0.0
212	0x00000000	0.0
213	0x00000000	0.0
214	0x00000000	0.0
215	0x00000000	0.0
216	0x00000000	0.0
217	0x00000000	0.0
218	0x00000000	0.0
219	0x00000000	0.0
220	0x00000000	0.0
221	0x00000000	0.0
222	0x00000000	0.0
223	0x00000000	0.0
224	0x00000000	0.0
225	0x00000000	0.0
226	0x00000000	0.0
227	0x00000000	0.0
228	0x00000000	0.0
229	0x00000000	0.0
230	0x00000000	0.0
231	0x00000000	0.0
232	0x00000000	0.0
233	0x00000000	0.0
234	0x00000000	0.0
235	0x00000000	0.0
236	0x00000000	0.0
237	0x00000000	0.0
238	0x00000000	0.0
239	0x00000000	0.0
240	0x00000000	0.0
241	0x00000000	0.0
242	0x00000000	0.0
243	0x00000000	0.0
244	0x00000000	0.0
245	0x00000000	0.0
246	0x00000000	0.0
247	0x00000000	0.0
248	0x00000000	0.0
249	0x00000000	0.0
250	0x00000000	0.0
251	0x00000000	0.0
252	0x00000000	0.0
253	0x00000000	0.0
254	0x00000000	0.0
255	0x00000000	0.0

model/dense/Tensordot/MatMul1 f4 [256, 6]
0	0xbd6a96ec	-0.057272837
1	0xbe0bc196	-0.13648066
2	0x3d7c9458	0.06166491
3	0xbd69667c	-0.056982502
4	0xbbc0bce0	-0.0058818907
5	0x3da1d956	0.07902782
6	0xbded9674	-0.11600962
7	0x3da5489e	0.08070491
8	0xbe1a611c	-0.15076107
9	0xbd43b06e	-0.04777568
10	0x3d36bd2c	0.044614002
11	0x3d72aaf8	0.05924508
12	0xbc684490	-0.014176503
13	0xbe072ffe	-0.13201901
14	0x3dcdc67e	0.10047625
15	0xbcaf0f88	-0.02136971
16	0x3caeaeb0	0.021323532
17	0xbdf9fd1c	-0.1220648
18	0xbd8fa03b	-0.070129834
19	0xbd809166	-0.062777326
20	0x3d538acc	0.05164604
21	0x3e16d30b	0.14728944
22	0xbcddc1a0	-0.027069867
23	0xbdc9e119	-0.09857387
24	0xbdc4318d	-0.095797636
25	0xbe1ae9fb	-0.15128319
26	0x3de3ba56	0.11119525
27	0xbc3bbcc0	-0.011458576
28	0x3dae7e22	0.08520152
29	0xbddea01a	-0.10870381
30	0xbdaf93dc	-0.08573124
31	0xbd4f7c10	-0.050655425
32	0x3de882ca	0.11353071
33	0xbdbd9c44	-0.09258321
34	0x3dae060e	0.084972486
35	0x3c846e98	0.016166016
36	0x3e0852bf	0.13312815
37	0xbd87e041	-0.0663457
38	0xbdfcaf88	-0.123381674
39	0x3d8b7206	0.068088576
40	0xbc735470	-0.014851674
41	0x3dc91ab0	0.09819543
42	0xbe1963d2	-0.14979485
43	0x3dd7a9b2	0.10530414
44	0xbda9e389	-0.08295352
45	0x3e009399	0.12556304
46	0x3dba5e0c	0.09099969
47	0xbdee357b	-0.11631294
48	0x3df0aa32	0.11751212
49	0x3ccd7198	0.02507858
50	0xbd8cd990	-0.06877434
51	0x3cd76408	0.026292816
52	0xbdd35679	-0.10319228
53	0x3d43e778	0.047828168
54	0x3dae8338	0.08521122
55	0xbe06c420	-0.13160753
56	0xbdb6e624	-0.089306146
57	0xbc272630	-0.010201976
58	0x3d794d90	0.060864985
59	0xbcef9924	-0.029247828
60	0x3d81b23c	0.06332824
61	0xbd0edfa0	-0.034881234
62	0x3c8a5738	0.016887292
63	0xbd92a0df	-0.0715959
64	0x3e1434f9	0.14473332
65	0xbdfb4de4	-0.12270716
66	0x3da20fe8	0.0791319
67	0xbd7c0b82	-0.061534412
68	0x3c6ad170	0.01433216
69	0xbd0cc96e	-0.034371786
70	0x3d79be30	0.060972393
71	0xbe0754e6	-0.1321598
72	0xbd46fa20	-0.04857838
73	0x3db32880	0.08747959
74	0x3dc1e74c	0.094679445
75	0xbd8b65e1	-0.06806541
76	0x3da1606c	0.07879719
77	0x3ddebbd6	0.108756706
78	0xbb3bc340	-0.0028650314
79	0x3dd07562	0.10178639
80	0x3df313be	0.11869
81	0xbdbd6dca	-0.09249456
82	0xbd992522	-0.07477786
83	0x3d254cd0	0.040356457
84	0x3c9fd0d0	0.01950875
85	0x3d304a00	0.043039322
86	0xbc416ed0	-0.011806205
87	0xbdeff120	-0.11715913
88	0x3dfdb55e	0.12388109
89	0x3e08ac63	0.1334701
90	0x3d238438	0.039921016
91	0x3db4b344	0.08823255
92	0xbe0e782e	-0.13913032
93	0xbd9e03d9	-0.07715578
94	0x3df877ee	0.1213225
95	0xbd61a7c2	-0.055091627
96	0x3ce110f0	0.027473897
97	0xbde39f24	-0.11114338
98	0x3e0f5a07	0.13999186
99	0x3d3a8e88	0.045546085
100	0xbd20f5ca	-0.039296903
101	0xbdbd59f2	-0.09245671
102	0xbd19b660	-0.037527442
103	0xbde917bd	-0.11381481
104	0xbd95df3d	-0.0731797
105	0xbccb0500	-0.024782658
106	0x3d737054	0.059433296
107	0x3dd572e6	0.10422306
108	0xbcca83b0	-0.024720997
109	0xbdce6ea0	-0.10079694
110	0xbc155e10	-0.0091166645
111	0xbd6012b0	-0.05470532
112	0xbdd205c4	-0.10255006
113	0x3c51c290	0.012802735
114	0x3d44bf80	0.04803419
115	0x3caab440	0.020837903
116	0x3e109eab	0.14123027
117	0x3d325374	0.04353662
118	0xbe09de92	-0.1346381
119	0x3e0d90b9	0.13824739
120	0x3dd725c6	0.105052516
121	0x3c2fcff0	0.0107307285
122	0x3d61cfa4	0.055129662
123	0xbd566684	-0.05234386
124	0x3d07b968	0.0331358
125	0x3d6b3e10	0.057432234
126	0xbcd4e728	-0.02598913
127	0xbdf7d185	-0.121005096
128	0xbe17a141	-0.14807607
129	0xbc438440	-0.011933386
130	0xbb5c00c0	-0.0033569783
131	0x3ce97a80	0.028500795
132	0xbd99cb1b	-0.075094424
133	0xbd964ead	-0.07339225
134	0xbcbd97d8	-0.023143694
135	0x3bc429a0	0.0059864074
136	0x3cb274b8	0.021784171
137	0xbde49774	-0.111617
138	0x3dcd5946	0.10026793
139	0x3cd36a80	0.02580762
140	0xbc969250	-0.018380314
141	0x3dc99dc6	0.09844546
142	0xbe0c33b0	-0.13691592
143	0xba2bf000	-0.0006558895
144	0x3dde5b36	0.10857241
145	0x3d510390	0.051028788
146	0xbe11daa1	-0.14243557
147	0xbb0f69c0	-0.00218831
148	0x3d54a694	0.051916674
149	0x3d8c2c54	0.068443924
150	0x3dfe6b0e	0.12422763
151	0xbe1ad009	-0.15118422
152	0x3d72f06c	0.059311315
153	0xbdbe7b36	-0.09300844
154	0x3a207f00	0.000612244
155	0xbd507716	-0.05089482
156	0xbe10f9d7	-0.14157806
157	0xbd704ec6	-0.058668874
158	0xbdd871d0	-0.10568583
159	0xbe19d96d	-0.15024348
160	0xbe0f4f19	-0.13995017
161	0xbd3daece	-0.046309285
162	0xbdddcc80	-0.10830021
163	0x3cd8c538	0.026461229
164	0x3d80c366	0.06287269
165	0xbad2a300	-0.0016070306
166	0xbc7d8f00	-0.015475988
167	0x3de55a72	0.11198892
168	0x3d53446c	0.051578924
169	0x3d49e55c	0.049291
170	0x3dc31376	0.09525196
171	0xbc425ae0	-0.011862487
172	0x3d8cd304	0.068761855
173	0x3d952c8e	0.07283889
174	0x3d35d8d8	0.04439625
175	0xbc77ac40	-0.015116751
176	0x3df31f32	0.118711844
177	0xbd573efe	-0.05255031
178	0xbdd03b40	-0.10167551
179	0x3d1cd534	0.038289264
180	0xbd93013b	-0.07177969
181	0xbd232f66	-0.039840125
182	0x3db0402c	0.0860599
183	0xbd885dd7	-0.066585235
184	0xbc35a8f0	-0.011087641
185	0xbd465d1e	-0.048428647
186	0x3da96134	0.08270493
187	0xbc0c6bb0	-0.008570597
188	0xbdfee6ae	-0.124463424
189	0x3da2509e	0.07925533
190	0xbde77d7c	-0.11303231
191	0x3dae195e	0.08500932
192	0xbc8978c8	-0.016781226
193	0x3de9fe3a	0.11425443
194	0xbdb3cd6f	-0.08779418
195	0xbd6cea90	-0.057840884
196	0xbe05f677	-0.130823
197	0x3dd14452	0.10218109
198	0x3db85b82	0.09001829
199	0x3e12a09d	0.14319082
200	0xbdb9d426	-0.09073667
201	0x3c8f3558	0.017481491
202	0xbbb6a200	-0.005573511
203	0x3e1249c1	0.14285947
204	0x3c8f5a58	0.017499134
205	0xbd569690	-0.05238968
206	0xbc96d538	-0.018412217
207	0x3e0ec475	0.1394213
208	0xbdd1759f	-0.102275126
209	0xbd290288	-0.04126218
210	0xbdb4cb71	-0.08827866
211	0xbd523722	-0.05132211
212	0x3c2e3fd0	0.010635331
213	0xbd71d6d6	-0.059042774
214	0xbcede394	-0.029039182
215	0xbceb759c	-0.028742604
216	0x3e073213	0.13202696
217	0xbe086900	-0.13321304
218	0xbe07be74	-0.13256246
219	0x3d178e48	0.037000924
220	0xbc833900	-0.01601839
221	0x3d5a287c	0.053261265
222	0xbc944690	-0.018100053
223	0xbda63bf5	-0.08116905
224	0x3d135eac	0.035978958
225	0x3db618ce	0.0889145
226	0xbd75b09a	-0.059982873
227	0xbd694890	-0.056953967
228	0x3db9bdd4	0.0906941
229	0x3d2591c0	0.0404222
230	0xbdd979ca	-0.106189325
231	0x3d84c796	0.064833805
232	0x3e04e379	0.12977399
233	0x3e0e844b	0.13917653
234	0xbe09fdab	-0.13475673
235	0xbe104a0f	-0.14090751
236	0x3e0ace8b	0.13555352
237	0xbe103586	-0.14082918
238	0x3d84a690	0.06477082
239	0x3df6ce8e	0.12051116
240	0x3e166099	0.14685287
241	0xbe05c6c0	-0.13064098
242	0xbdf54b04	-0.11977199
243	0x3da6a38a	0.08136661
244	0xbdca1bfc	-0.09868619
245	0xbde11c15	-0.10991684
246	0xbd2f6406	-0.04282
247	0x3e1ac64d	0.15114708
248	0xbde102c1	-0.109868534
249	0xbd76f3c4	-0.060291067
250	0xbdaa79a3	-0.083239816
251	0x3db89c56	0.09014194
252	0x3bd03b80	0.006354749
253	0xbdf3d14c	-0.119051546
254	0xbdd58954	-0.10426584
255	0x3e0ca37f	0.13734244

model/dense_1/Tensordot/MatMul f4 [256, 256]
0	0xbce44c88	-0.027868524
1	0x3bd09450	0.0063653365
2	0x3c54b0f8	0.012981646
3	0xbdadbf86	-0.08483796
4	0xbd37d904	-0.044884697
5	0x3d13f136	0.03611871
6	0xb9de4900	-0.0004239753
7	0x3d8e0627	0.06934767
8	0xbdafeff7	-0.085906915
9	0x3dbbaf47	0.09164291
10	0xbd740aaa	-0.059580483
11	0x3ce447e4	0.027866311
12	0x3db15123	0.08658054
13	0xbc9a9088	-0.018867746
14	0xbb8b2060	-0.0042458028
15	0xbdcda4d5	-0.10041205
16	0x3dcc1c7f	0.09966373
17	0xbc1464a0	-0.009057194
18	0x3cc5310c	0.024071239
19	0x3d06bcd2	0.032894917
20	0xbd815fd8	-0.06317109
21	0xbdb28df8	-0.08718485
22	0x3ddc2c43	0.1075063
23	0x3dddaed5	0.10824362
24	0x3d14c936	0.036324702
25	0xbaca7c00	-0.0015448332
26	0xbd629f2d	-0.055327583
27	0x3d5674fa	0.05235765
28	0x3b802810	0.003911026
29	0x3d9972cb	0.07492598
30	0x3da2f2fb	0.07956501
31	0x3db45225	0.0880473
32	0x3d914b59	0.070944495
33	0xbd343124	-0.043992177
34	0x3c64cb78	0.013964526
35	0x3c0c2370	0.008553371
36	0xbccbff2c	-0.024901949
37	0xbd7bb17b	-0.061448555
38	0xbcf4eea0	-0.029898942
39	0xbd99276e	-0.07478224
40	0xbd418e36	-0.047254764
41	0xbd0187a6	-0.031623505
42	0x3d09864a	0.033575334
43	0xbc9a8e98	-0.018866822
44	0x3cbca804	0.023029335
45	0x3b449440	0.002999559
46	0x3d1ca46a	0.038242735
47	0xbd3c588f	-0.045982894
48	0xbdbeb5f0	-0.093120456
49	0x3d222b4e	0.03959208
50	0xbd5daef8	-0.05412194
51	0x3ce55aa4	0.027997322
52	0xbdd17bf6	-0.10228722
53	0xbda17838	-0.07884258
54	0xbda0a267	-0.07843476
55	0xbd3ef0bf	-0.046616312
56	0x3da85345	0.082190074
57	0x3dc2e79b	0.095168315
58	0xbbd3d650	-0.006464757
59	0xbd0b8652	-0.034063645
60	0xbda5108c	-0.08059797
61	0xbd85c687	-0.06532007
62	0xbc81dbd8	-0.0158519
63	0xbd6386b4	-0.055548385
64	0x3c2241f0	0.009903416
65	0x3d97e2b3	0.07416286
66	0x3d2ddabe	0.042444937
67	0x3a944600	0.0011312366
68	0xba840200	-0.0010071397
69	0xbda09f4e	-0.07842885
70	0x3bd0ff80	0.006378114
71	0xbb466b60	-0.0030276403
72	0xbda5c3da	-0.08093996
73	0x3d0b3e62	0.03399504
74	0x3ba75930	0.0051070675
75	0xbd8e215e	-0.06939958
76	0x3d2e85a6	0.042607926
77	0xbd3b208c	-0.045685336
78	0x3b18ab40	0.0023295432
79	0x3d8b7e45	0.068111934
80	0xbd645833	-0.055748176
81	0xbbd70570	-0.0065619275
82	0xbb3de200	-0.0028973818
83	0x3dcb12f9	0.09915728
84	0xbd0c1bda	-0.03420625
85	0x3dbcffbb	0.09228464
86	0x3d58b8d6	0.05291065
87	0x3d945257	0.072422676
88	0x3d8aa2b9	0.06769318
89	0x3b916600	0.004437208
90	0xbd7e78de	-0.062126987
91	0x3dc1b7b7	0.09458869
92	0x3dcb3dd9	0.09923906
93	0x3dd44b15	0.10365883
94	0x3cc5f6e4	0.024165578
95	0x3ddba15b	0.107241355
96	0x3d43b07a	0.047775723
97	0xb8548000	-5.0663948e-05
98	0xbc095030	-0.008380935
99	0x3d09afba	0.03361485
100	0x3bd70de0	0.0065629333
101	0xbd39eb9e	-0.045390718
102	0x3dc76b17	0.09737223
103	0xbda77d56	-0.08178203
104	0xbd831031	-0.06399573
105	0xbdaf523a	-0.08560605
106	0xbd64dc14	-0.055873945
107	0x3d4de59a	0.050267793
108	0x3b122680	0.002230078
109	0xbdaa1b12	-0.083059445
110	0x3d472b16	0.048625074
111	0x3d8006a9	0.0625127
112	0xbce584f4	-0.028017499
113	0x3d42e6e2	0.04758347
114	0xbd94e2fc	-0.07269856
115	0x3d8f21d1	0.06988872
116	0x3d11fb1a	0.03563986
117	0x3d68846a	0.056766905
118	0xbb661180	-0.0035105646
119	0xbda2641a	-0.07929249
120	0xbd76c2de	-0.060244434
121	0x3d07b40a	0.033130683
122	0x3cd13f94	0.025543012
123	0x3d43b15a	0.047776558
124	0xbd60243f	-0.054722067
125	0x3d2dc822	0.04242719
126	0x3d89b8fd	0.06724737
127	0xbd8fe712	-0.07026495
128	0xbdc532bb	-0.09628817
129	0x3cabeeec	0.02098795
130	0x3b175620	0.0023092106
131	0x3dc1b32b	0.09458002
132	0xbd778e4e	-0.060438447
133	0x3d955311	0.07291234
134	0x3d3dee82	0.046370037
135	0x3dc9d775	0.09855548
136	0x3d818947	0.06325012
137	0x3d9500c7	0.07275539
138	0xbd828a00	-0.06373978
139	0x3cb650b4	0.02225528
140	0x3cfcd99c	0.030865483
141	0xbddb75fa	-0.107158616
142	0xbcf27748	-0.029597893
143	0xbd8e7432	-0.06955756
144	0x3d884fa1	0.06655813
145	0x3ddda135	0.108217634
146	0x3d9da59f	0.07697605
147	0xbd4ebb53	-0.050471615
148	0x3c36a0d0	0.011146739
149	0xbd9f09f7	-0.077655725
150	0xbc285130	-0.010273263
151	0x3d0c2086	0.034210704
152	0xbd2d466a	-0.04230348
153	0xbd0882c0	-0.033327818
154	0x3dae1ad9	0.085012145
155	0x3db40b41	0.08791209
156	0xbdda6453	-0.106636666
157	0xbd861ca4	-0.065484315
158	0x3dae56e7	0.08512669
159	0xbdccbe1a	-0.099971965
160	0x3b1b45c0	0.0023692697
161	0xbb898d40	-0.0041977465
162	0x3c873a2c	0.01650723
163	0x3d0245b2	0.031804748
164	0xbd194472	-0.03741879
165	0xbdd88de6	-0.1057394
166	0x3dc1cbfb	0.09462734
167	0xbd292196	-0.041291796
168	0xbda78cb9	-0.081811376
169	0x3cef60fc	0.02922105
170	0xbd7bc212	-0.061464377
171	0xbce12a54	-0.027486004
172	0xbd9faeb3	-0.07796993
173	0x3c108cd8	0.008822642
174	0x3da54745	0.08070234
175	0x3d8c24cb	0.06842955
176	0x3d40b7fa	0.047050454
177	0xbac5ba40	-0.0015085414
178	0xbd0ef920	-0.034905553
179	0x3c71a6b0	0.014749214
180	0xbd8299b9	-0.063769765
181	0x3d7b686e	0.06137889
182	0x3d45f086	0.048325084
183	0xbdc52d58	-0.09627789
184	0xbbab0010	-0.0052185133
185	0xbce5bed0	-0.028045088
186	0xbd6d6d6c	-0.05796568
187	0xbc847dd4	-0.01617328
188	0x3d6b9602	0.057516105
189	0x3d69c2f2	0.05707068
190	0xbd01c3de	-0.031680934
191	0x3d14f582	0.036366947
192	0xbdbe27d8	-0.09284943
193	0xbcf979f8	-0.030453667
194	0x3d99c72f	0.075086944
195	0x3db2ad59	0.0872447
196	0xbd5c0257	-0.05371317
197	0x3d65bc9e	0.056088082
198	0x3d907c8d	0.07055006
199	0xbd80d254	-0.06290117
200	0xbd9e0a15	-0.07716767
201	0xbdaf9674	-0.085736185
202	0xbae7f680	-0.0017697364
203	0x3daf683d	0.08564804
204	0x3dcef61f	0.101055376
205	0xbd565dcf	-0.052335557
206	0x3d29b3e6	0.04143133
207	0x3d9dbd21	0.07702089
208	0xbd9d295c	-0.07673904
209	0xbd3b9c4e	-0.04580336
210	0x3d92eadf	0.07173704
211	0xbda0f2a6	-0.078587815
212	0xbd87c07a	-0.06628509
213	0xbd1678ea	-0.036736406
214	0x3cc40b34	0.023931123
215	0xbc52ff30	-0.012878224
216	0xbd994c1a	-0.07485218
217	0xbd5a625a	-0.05331645
218	0xbb9cc8d0	-0.004784681
219	0xba89b100	-0.0010505021
220	0xbd5a6315	-0.05331715
221	0x3dc8b6d1	0.098004945
222	0xbc4b1f30	-0.012397572
223	0x3db32fb7	0.08749335
224	0x3dc7a2f9	0.097478814
225	0x3b8d64a0	0.004314974
226	0x3d9de2c9	0.077092715
227	0xbddb4ab0	-0.10707605
228	0xbcc03d5c	-0.023466758
229	0xba658f00	-0.00087569654
230	0x3c83a188	0.016068235
231	0x3a946dc0	0.0011324212
232	0x3bd2e100	0.0064355135
233	0x3d0ca9d2	0.03434164
234	0x3dc395f3	0.09550085
235	0xbdb1c6f9	-0.08680529
236	0xbd9df650	-0.07712996
237	0xbdca1d29	-0.09868843
238	0xbd7daff3	-0.061935376
239	0xbc12ce78	-0.008960359
240	0xbc532ad0	-0.012888625
241	0xbd8cbcdc	-0.068719596
242	0xbd6e1607	-0.058126476
243	0xbca9fa50	-0.020749241
244	0xbdd6c70c	-0.10487184
245	0xbd100802	-0.035163887
246	0x3dd551a7	0.104159646
247	0xbd3f6571	-0.0467276
248	0xbc92a6bc	-0.01790177
249	0xbc6974a0	-0.014248997
250	0xbdadd0b2	-0.08487071
251	0x3cc7ea4c	0.024403714
252	0xbc7cf528	-0.015439309
253	0x3d8aa3df	0.06769537
254	0x3d609782	0.05483199
255	0x3c4275c0	0.011868894

model/dense_2/Tensordot/MatMul f4 [1, 256]
0	0xbc0e9a10	-0.008703724
1	0x3c78afe0	0.015178651
2	0x3df7ab72	0.120932475
3	0x3dea7f36	0.11450045
4	0x3da217e8	0.07914716
5	0xbd381d64	-0.044949904
6	0xbc6572b0	-0.014004394
7	0xbd08c3a2	-0.033389695
8	0x3cfd2550	0.030901581
9	0x3dc11b30	0.09429014
10	0x3bc014c0	0.0058618486
11	0x3d9cfa08	0.07664877
12	0xbdd04a46	-0.101704165
13	0xbb3e3a40	-0.002902642
14	0x3b17f280	0.0023185313
15	0x3cf16d68	0.029471114
16	0x3de32d22	0.11092593
17	0x3db65282	0.08902456
18	0xbd49ea62	-0.04929579
19	0xbba27760	-0.0049580783
20	0xbdcae470	-0.09906852
21	0x3d449410	0.047992766
22	0xbb6f0140	-0.003646925
23	0xbdf039c2	-0.117297664
24	0x3dc989b6	0.098407194
25	0x3d1b566c	0.037924215
26	0xbde34000	-0.110961914
27	0xbb1f2540	-0.0024283677
28	0xbd88ce00	-0.066799164
29	0xbd73be9a	-0.059507944
30	0xbdfe42ed	-0.12415109
31	0xbd971901	-0.07377816
32	0xbcf22588	-0.029558912
33	0x3cfeb7b0	0.031093448
34	0xbdcf72b8	-0.10129303
35	0x3e1b8327	0.1518675
36	0xbcd72390	-0.026262075
37	0x3d077630	0.033071697
38	0x3bfec440	0.0077748597
39	0x3c860038	0.016357526
40	0x3cbc85e8	0.02301307
41	0xbddedeb2	-0.108823195
42	0x3e00e967	0.12589036
43	0x3de32e82	0.11092855
44	0xbd18bc32	-0.037288852
45	0x3c792cb0	0.015208408
46	0xbcf98700	-0.03045988
47	0x3c00b070	0.007854566
48	0xbe0dc3fa	-0.1384429
49	0x3d102e10	0.03520018
50	0xbdf61eea	-0.12017615
51	0x3e1a9abf	0.15098093
52	0xbd855571	-0.06510437
53	0x3af1cd80	0.0018448085
54	0xbde81b46	-0.11333327
55	0x3c709620	0.01468423
56	0xbddea39a	-0.10871048
57	0xbe0318e2	-0.12802461
58	0x3de31f2e	0.110899314
59	0xbe111fe6	-0.14172325
60	0x3d9c1eda	0.07623072
61	0x3dec370e	0.11533938
62	0x3db68002	0.08911134
63	0xbdf6844c	-0.120369524
64	0x3e0264c1	0.12733747
65	0xbd7b5f8c	-0.061370417
66	0x3d2aa5cc	0.041662022
67	0xbda1a000	-0.07891846
68	0x3ce88430	0.028383344
69	0x3c7278a0	0.014799267
70	0x3d6f22e0	0.05838287
71	0x3e09803d	0.13427825
72	0x3c90ff18	0.017699763
73	0x3cc8de18	0.024519965
74	0x3e1a239d	0.15052648
75	0x3ce30810	0.027713805
76	0xbdd005c4	-0.1015735
77	0x3dbb4d24	0.09145573
78	0xbd3fa89a	-0.04679165
79	0x3dabb752	0.08384575
80	0xbe17030a	-0.14747253
81	0x3de47652	0.1115538
82	0xbd6520c4	-0.05593945
83	0x3dcdc892	0.100480214
84	0xbdc5109a	-0.09622307
85	0x3d66e09c	0.056366548
86	0x3da20b3e	0.079123005
87	0xbdece5ae	-0.115672454
88	0xbd04bd12	-0.032406874
89	0xbdf283a7	-0.11841517
90	0xbd79ccfa	-0.060986497
91	0x3dbd9f32	0.0925888
92	0xbd77b9aa	-0.060479797
93	0xbe147984	-0.1449948
94	0xbd896070	-0.06707847
95	0x3cc6ca80	0.024266481
96	0xbdbf42ec	-0.09338936
97	0xbd96c957	-0.07362621
98	0x3c46b830	0.012128875
99	0x3e00bf89	0.12573065
100	0x3cde1cc0	0.027113318
101	0x3dba9d7c	0.09112069
102	0xbe01b5d3	-0.12667017
103	0x3dbf56fa	0.09342761
104	0xbd90f0c0	-0.070771694
105	0xbdcc5678	-0.0997743
106	0xbd456f50	-0.04820186
107	0xbe0c93d2	-0.13728264
108	0xbe1ac651	-0.15114714
109	0xbd3c6f84	-0.046004787
110	0xbe14e2d2	-0.1453965
111	0x3ddfab1e	0.1092131
112	0x3d1587b0	0.036506355
113	0x3cd38a38	0.025822744
114	0x3d25e7a8	0.040504128
115	0x3d2240d0	0.03961259
116	0x3d24fc28	0.040279537
117	0xbdeeae23	-0.11654308
118	0xbdd59abe	-0.10429905
119	0x3d82efea	0.06393416
120	0xbe043daa	-0.12914148
121	0xbda4551e	-0.08024047
122	0x3dc07268	0.09396821
123	0x3e1829a5	0.14859636
124	0x3d7589c8	0.05994585
125	0x3d4a719c	0.049424753
126	0xbdf374d7	-0.1188752
127	0x3d8563e6	0.06513195
128	0x3e08f13b	0.13373272
129	0x3d8ccea0	0.06875348
130	0xbe0075d3	-0.12544946
131	0xbdec94c6	-0.11551814
132	0x3df54aba	0.119771436
133	0x3e062b17	0.13102375
134	0xbd9c1eca	-0.0762306
135	0x3e187c05	0.1489106
136	0xbc074f10	-0.008258596
137	0x3dcfa506	0.101388976
138	0x3e151c4d	0.14561577
139	0x3daec434	0.085335165
140	0xbd43fa0a	-0.047845878
141	0xbd5c9a0e	-0.053857855
142	0x3e010dfd	0.12602992
143	0x3e1986d9	0.14992847
144	0x3dab6666	0.0836914
145	0x3dfb3c02	0.12267305
146	0x3d905924	0.07048252
147	0xbd8b1842	-0.06791736
148	0x3dbf3f94	0.093382984
149	0xbd97a14c	-0.07403812
150	0xbda1af43	-0.07894757
151	0xbdefe454	-0.11713472
152	0x3d0483bc	0.032352194
153	0xbcc9c650	-0.024630696
154	0x3c67a410	0.014138237
155	0x3d3c2e64	0.04594268
156	0x3e0780e7	0.13232766
157	0xbd2d6348	-0.04233101
158	0xbd0f0d7a	-0.03492496
159	0xbbb76780	-0.005597055
160	0x3d7c6d78	0.061627835
161	0x3de210d6	0.110383675
162	0xbcd5c890	-0.026096612
163	0x3d7cfb88	0.061763316
164	0xbdb7009a	-0.089356616
165	0xbd90faf8	-0.070791185
166	0xbe04ac91	-0.12956454
167	0x3dfa1a0e	0.12212001
168	0xbe122f65	-0.14275892
169	0x3e01d15f	0.12677525
170	0xbdcf5562	-0.10123707
171	0xbde8502e	-0.11343418
172	0xbdbae4dc	-0.09125683
173	0x3e0167d5	0.12637265
174	0xbcf3f878	-0.029781565
175	0xbd698fb0	-0.057021797
176	0xbdfbfee6	-0.123044774
177	0xbd528840	-0.05139947
178	0xbdd71482	-0.105019584
179	0x3e0c3099	0.13690414
180	0xbd23f00a	-0.04002384
181	0xbd62236a	-0.055209555
182	0xbc4a68e0	-0.012354106
183	0xbd8f0ff1	-0.069854625
184	0xbd49fec0	-0.049315214
185	0x3e0ea521	0.13930179
186	0x3d3a4e24	0.045484677
187	0x3df2148e	0.11820327
188	0x3d231d00	0.03982258
189	0x3dbe4816	0.09291093
190	0xbdeac018	-0.1146242
191	0x3cc6b5f8	0.024256691
192	0x3cf30b80	0.02966857
193	0xbd6c4e6e	-0.057691984
194	0x3d07d40c	0.033161208
195	0x3dd8a4f2	0.10578336
196	0x3dc784a2	0.097420946
197	0xbe094d19	-0.13408317
198	0x3e09a171	0.13440491
199	0xbd6b1dd6	-0.0574015
200	0xbe0decd2	-0.13859871
201	0xbdc3dec4	-0.095639735
202	0xbe0be9fa	-0.13663474
203	0xbce02168	-0.02735968
204	0xbde929c6	-0.11384921
205	0xbd701ad2	-0.058619328
206	0xbcb731a8	-0.022362545
207	0xbdc6ee3e	-0.0971341
208	0x3de5a20a	0.11212547
209	0xbdaea8ae	-0.08528267
210	0x3e0177d1	0.12643363
211	0x3df859da	0.12126513
212	0xbdafb3fe	-0.08579253
213	0x3d2dfe2c	0.042478725
214	0x3e198b17	0.14994465
215	0xbde5d0ec	-0.11221489
216	0x3dcabbc2	0.09899093
217	0xbe05765c	-0.13033432
218	0x3d955584	0.072917014
219	0x3dad1252	0.0845076
220	0xbd3a177c	-0.045432553
221	0x3c86e320	0.016465724
222	0xbc5e6480	-0.013573766
223	0x3c9705c8	0.018435374
224	0x3cd1ccf8	0.025610432
225	0x3db6d016	0.08926408
226	0x3cab1040	0.020881772
227	0x3dbb1636	0.09135096
228	0xbd931e08	-0.071834624
229	0xbd81105e	-0.0630195
230	0x3e1b51c5	0.15167911
231	0xbbd25fa0	-0.006420091
232	0x3c2378b0	0.009977505
233	0x3df96106	0.12176709
234	0x3d9bf326	0.07614736
235	0x3e190e8d	0.14946957
236	0x3d1f5ff8	0.038909882
237	0xbc9331e8	-0.017968133
238	0xbe1ad10a	-0.15118805
239	0x3de8d402	0.11368562
240	0x3e04f919	0.12985648
241	0x3db061cc	0.08612403
242	0x3e0ea07f	0.13928412
243	0xbdd73adc	-0.105092734
244	0xbe05c37e	-0.13062856
245	0x3c727550	0.014798477
246	0x3de7a712	0.11311163
247	0xbd142e68	-0.03617707
248	0x3d1081b0	0.03527993
249	0xbdf3d60a	-0.11906059
250	0x3dd05d92	0.10174097
251	0xbcc26038	-0.023727521
252	0x3dfcad9e	0.12337802
253	0xbcfc508c	-0.030800126
254	0xbcbfdc50	-0.023420483
255	0x3dd9b02a	0.10629304
