Some_Previous_Results_of_PPO_tflite/LIC01_AiMV_critic.tflite (tflite, 278492 bytes, 5 tensors)

model_1/dense_4/BiasAdd/ReadVariableOp f4 [256]
-0.015586616 -0.07581788 -0.065064356 -0.03831948 -0.01513176 -0.03452313 0.4284327 -0.05483099
0.18462795 -0.032792028 -0.0039984873 0.1816758 -0.044151213 -0.0060054213 -0.0063129677 -0.046609495
-0.009476404 0.12759052 -0.02483623 -0.0222103 -0.043713633 -0.008156093 -0.009563524 -0.0128185125
0.19984762 -0.06659602 0.0956011 -0.031313844 -0.046409685 -0.026290389 0.18886401 0.15594472
-0.030270914 -0.010284836 -0.076097354 -0.023649298 0.18631499 -0.060705245 -0.045751013 -0.050259545
-0.029627835 -0.032860372 -0.04313745 -0.0772776 -0.053066067 -0.028483674 0.14852042 -0.06315016
-0.005714522 -0.051135562 0.011676646 -0.03748671 -0.023983438 0.027159486 0.17832012 -0.042503472
-0.05892575 -0.021465123 -0.025410946 -0.04903963 -0.02792417 -0.02584829 0.20760718 -0.026619893
-0.026619041 -0.0131245535 -0.062893875 -0.051137105 -0.05251125 0.10535735 -0.029561743 0.0
0.20607631 0.011285686 -0.035399407 -0.03084228 0.004004403 0.16079585 -0.05068949 0.0054731104
-0.002545248 -0.047017265 -0.034590628 -0.050674267 0.024156297 -0.05171102 0.15011911 0.0003550586
0.17868437 -0.012324219 0.005121071 -0.07472912 -0.03364425 0.0002965023 -0.010342748 0.018166695
-0.062912524 0.41866913 -0.016191993 -0.027408574 -0.047652457 -0.011776272 -0.064769946 -0.00953146
-0.03744017 0.0056437706 -0.07452073 0.015830714 -0.020681502 -0.01951312 0.080290996 0.02911465
-0.034012944 -0.0010036892 -0.03173871 -0.093528375 -0.05529913 -0.07288492 0.18101647 -0.039572194
-0.010844782 -0.0308561 0.024900606 -0.06855426 -0.07772726 -0.02573049 0.019176496 0.008887911
-0.034901578 -0.047589183 -0.016657397 -0.032048125 -0.009475823 0.014312826 0.11009081 -0.017684268
-0.031207796 0.088696145 -0.029240206 -0.04972203 -0.101680525 0.019571755 -0.0231157 0.10230432
-0.003971512 -0.059378617 -0.08126253 -0.029366901 -0.053502813 0.043526355 -0.025413614 -0.025469448
0.18837893 -0.03143373 -0.022941113 -0.012299797 -0.031390198 -0.035385974 -0.031898063 -0.01493759
-0.04712693 0.14608851 -0.0238575 0.042977624 -0.030313976 -0.0032698 -0.09262823 0.20386647
-0.011750689 -0.03174513 0.12519445 -0.031219985 0.17208599 -0.012778249 0.09380553 -0.011067329
0.18474196 -0.034656323 -0.025637003 -0.021353519 -0.05096101 -0.03415236 0.19116001 -0.027915318
0.001700681 -0.020722827 0.025782553 -0.032591924 -0.035571985 0.30356005 -0.0607028 0.15249258
-0.026836885 -0.075844765 -0.033980384 0.18998735 -0.13791 -0.04696299 0.051301837 0.11053496
-0.02228952 0.13210851 -0.005125818 0.17992418 -0.04897327 0.011607407 -0.031216532 -0.024403814
-0.079669885 -0.063052885 -0.054973334 -0.05992315 -0.039719705 -0.03842577 -0.015299937 0.16335988
-0.03195307 0.008036392 -0.031217786 0.15572537 -0.016866734 -0.030841615 -0.011776477 -0.036148235
-0.07303732 -0.05808116 -0.038476963 -0.051108617 -0.05774346 0.06094065 0.0043038223 0.24419808
0.18617852 -0.032127593 -0.057571944 -0.059017073 -0.035170108 0.2684411 -0.019953644 0.021174565
0.04292545 -0.020996543 -0.032875028 0.010570682 -0.021406528 0.008050734 0.0006777931 -0.04014263
0.3422058 0.18170017 -0.06664099 0.11768961 0.14937976 0.17745619 0.025927885 -0.03577274
00000000: 015f 7fbc 6846 9bbd 7640 85bd e3f4 1cbd
00000010: 34eb 77bc 2068 0dbd 885b db3e 7696 60bd
00000020: 1c0f 3d3e ef50 06bd be05 83bb 3909 3a3e
00000030: e7d7 34bd 20c9 c4bb 03dd cebb 99e9 3ebd
00000040: eb42 1bbc 17a7 023e 5975 cbbc 60f2 b5bc
00000050: 110d 33bd 22a1 05bc 54b0 1cbc bd04 52bc
00000060: dba4 4c3e 7e63 88bd 82ca c33d f242 00bd
00000070: 1518 3ebd f15e d7bc 9165 413e f9af 1f3e
00000080: b5fa f7bc bb81 28bc eed8 9bbd 2cbc c1bc
00000090: 5bc9 3e3e 10a6 78bd 6a65 3bbd f4dc 4dbd
000000a0: 13b6 f2bc 9998 06bd e5b0 30bd b843 9ebd
000000b0: ce5b 59bd 9856 e9bc bd15 183e df54 81bd
000000c0: e340 bbbb 8673 51bd 674f 3f3c aa8b 19bd
000000d0: ea78 c4bc 927d de3c 8d99 363e 1f18 2ebd
000000e0: 215c 71bd a0d7 afbc 9e2a d0bc c7dd 48bd
000000f0: 3bc1 e4bc cbbf d3bc fa96 543e f611 dabc
00000100: 2d10 dabc 5e08 57bc 81ce 80bd 2475 51bd
00000110: 0916 57bd 98c5 d73d 782b f2bc 0000 0000
00000120: ab05 533e 99e7 383c f8fe 10bd f3a8 fcbc
00000130: 5e37 833b aba7 243e c89f 4fbd c757 b33b
00000140: 2dce 26bb 2d95 40bd e7ae 0dbd d28f 4fbd
00000150: 6de3 c53c efce 53bd d3b8 193e 2927 ba39
00000160: 09f9 363e 85eb 49bc a8ce a73b 950b 99bd
00000170: 8ece 09bd dd73 9b39 a174 29bc 52d2 943c
00000180: 48d8 80bd cd5b d63e 12a5 84bc f287 e0bc
00000190: 392f 43bd 44f1 40bc 1ba6 84bd d729 1cbc
000001a0: dd5a 19bd 61ef b83b 539e 98bd 6aaf 813c
000001b0: 416c a9bc fbd9 9fbc 9b6f a43d d981 ee3c
000001c0: 2851 0bbd 398e 83ba 7300 02bd ce8b bfbd
000001d0: 5781 62bd b044 95bd 625c 393e 7416 22bd
000001e0: 50ae 31bc efc5 fcbc 5bfc cb3c 2d66 8cbd
000001f0: 782f 9fbd c0c8 d2bc 0718 9d3c 9a9e 113c
00000200: f5f4 0ebd e0ec 42bd 1875 88bc e544 03bd
00000210: 7b40 1bbc 5880 6a3c 4a77 e13d 99de 90bc
00000220: 7ea7 ffbc 53a6 b53d 2889 efbc 54a9 4bbd
00000230: e13d d0bd f254 a03c 235d bdbc ed84 d13d
00000240: 7523 82bb fe36 73bd f86c a6bd db92 f0bc
00000250: c425 5bbd b148 323d 3630 d0bc 4ea5 d0bc
00000260: 68e6 403e a8c0 00bd 00ef bbbc 1685 49bc
00000270: 0293 00bd e2f0 10bd 8ba7 02bd cbbc 74bc
00000280: 2b08 41bd 3a98 153e ce70 c3bc 4e09 303d
00000290: 0455 f8bc 244a 56bb dfb3 bdbd 5fc2 503e
000002a0: f685 40bc 2e07 02bd f932 003e 0ec1 ffbc
000002b0: 4f37 303e dc5b 51bc 1d1d c03d be53 35bc
000002c0: ff2c 3d3e caf3 0dbd b104 d2bc 93ed aebc
000002d0: 7ebc 50bd 58e3 0bbd 73bf 433e aaae e4bc
000002e0: 63e9 de3a ebc2 a9bc ef35 d33c 1c7f 05bd
000002f0: eeb3 11bd 396c 9b3e 80a3 78bd 0427 1c3e
00000300: 07d9 dbbc 8054 9bbd 042f 0bbd 0b8c 423e
00000310: 4738 0dbe 445c 40bd e021 523d 2760 e23d
00000320: 8398 b6bc 7447 073e 7af6 a7bb 0b3e 383e
00000330: 3298 48bd fe2c 3e3c d0b9 ffbc 82ea c7bc
00000340: f729 a3bd df21 81bd b82b 61bd fa71 75bd
00000350: 21b1 22bd 5764 1dbd 96ac 7abc d047 273e
00000360: 39e1 02bd 12ab 033c 71bc ffbc 7976 1f3e
00000370: 1b2c 8abc 8ea7 fcbc 20f2 40bc 2c10 14bd
00000380: 9794 95bd 83e6 6dbd 059a 1dbd 4557 51bd
00000390: 6884 6cbd e79c 793d 1407 8d3b 100f 7a3e
000003a0: 95a5 3e3e 3998 03bd 8fd0 6bbd e3bb 71bd
000003b0: 880e 10bd 1d71 893e d375 a3bc 4876 ad3c
000003c0: 99d2 2f3d f100 acbc f7a7 06bd a730 2d3c
000003d0: be5c afbc 3ae7 033c edad 313a 996c 24bd
000003e0: 9935 af3e 9c0f 3a3e 127b 88bd 4007 f13d
000003f0: 02f7 183e 13b7 353e b766 d43c 7086 12bd

model_1/dense_3/BiasAdd/ReadVariableOp f4 [256]
0.03336035 0.0 -0.03713647 -0.0077365143 -0.08820538 -0.041019227 -0.028424589 0.08169602
-0.029064523 0.02236031 -0.044236816 -0.061391633 -0.048409924 -0.10020252 -0.019138409 -0.0116863195
-0.025149804 -0.08239923 -0.05012503 0.05501267 0.015470837 -0.07184869 -0.03874815 -0.016603405
-0.0574424 -0.094427705 -0.025792737 -0.11564093 -0.05781419 -0.050325956 -0.070354044 0.05613492
-0.023308413 -0.03850513 -0.052232135 -0.020463193 -0.06854241 -0.09329122 -0.045018166 -0.06460139
-0.1297915 0.011865497 -0.015419614 -0.031330377 0.08804799 0.005237199 -0.036444895 -0.03285858
-0.055023443 0.0 0.0017863979 -0.09150653 0.011493221 -0.010547003 -0.021774158 0.02618541
-0.05777302 -0.03519009 0.0 -0.069120795 -0.056471232 -0.03920264 -0.067357026 -0.071894936
0.0 -0.08313254 0.0005583951 0.0 -0.021929746 -0.06953501 -0.08403521 -0.038106583
-0.069482766 0.013267362 -0.03142246 -1.823929e-05 -0.040921904 -0.025667906 0.0 -0.0312828
0.033178046 -0.043374285 0.0208565 -0.053454638 -0.026499463 -0.06946882 0.0 -0.053961057
-0.04655698 0.04301617 0.09515383 0.012140517 -0.027847989 -0.03628082 -0.03685972 -0.10962343
-0.052242693 -0.010458452 0.06459202 -0.0043838965 -0.100501895 -0.059832122 0.0040226276 -0.03279584
-0.039627403 -0.06271366 -0.08789417 0.0 -0.077796206 -0.016869554 -0.058495652 -0.060320374
-0.088238865 -0.019569114 -0.057441168 -0.04867895 0.028378975 -0.05281778 -0.056936145 -0.093651876
-0.025289191 0.0049813124 -0.022021178 -0.026957175 -0.11218591 -0.07857719 -0.08927581 -0.044555657
-0.059692487 -0.018472174 0.0 0.036167413 -0.01639603 -0.02065662 -0.07553518 -0.0496951
-0.003731656 -0.023046568 -0.07030462 0.0 -0.05175124 -0.011145139 -0.08674996 0.0
-0.0031562496 0.0 -0.11306747 -0.043853007 0.0 -0.027010135 0.0 -0.032175876
0.003944316 -0.0795515 0.0 -0.06590823 -0.036063306 -0.00861041 0.009816184 -0.05338315
-0.08731489 -0.05281756 -0.043643266 -0.051493287 -0.06651038 -0.035034493 -0.05396848 -0.07581375
-0.039612554 0.0017116313 -0.034729812 -0.030022144 -0.01509838 -0.06424521 -0.014832911 0.0030863734
-0.035062023 -0.011796278 0.004676496 0.017742358 0.0 -0.0006102538 -0.022916244 -0.028408753
0.02857025 -0.025239563 0.0 -0.010540537 -0.13202244 -0.013029186 -0.08243219 -0.026016908
-0.042644467 0.0030634752 -0.05929974 0.00936139 -0.04791447 -0.05452035 -0.084690124 -0.029661633
-0.03055394 -0.057293028 -0.049318857 -0.015569525 0.0 -0.013049817 -0.068605624 0.10693329
-0.06225109 -0.099175155 -0.014924445 -0.017998978 -0.060305815 0.0 -0.017144475 0.0
0.0032563796 -0.06728953 -0.078207485 0.04289617 -0.09457276 -0.080697656 -0.07922156 0.0
-0.064771816 0.0025848618 -0.031900838 0.0015188026 0.034319747 -0.02438551 -0.025902938 -0.0653994
0.0 0.0 -0.08576242 0.0004030209 0.017925085 0.0 -0.022798572 -0.00556301
0.0 -0.03635112 -0.02051406 -0.013247143 -0.045106642 -0.04511571 -0.08571188 -0.06885858
0.0037990133 -0.091176815 -0.043454535 0.074490204 0.0 -0.05371559 -0.062113244 -0.0576223
00000000: dda4 083d 0000 0000 691c 18bd 9682 fdbb
00000010: 06a5 b4bd c703 28bd afda e8bc 3e50 a73d
00000020: b918 eebc f82c b73c aa31 35bd cb75 7bbd
00000030: 7c49 46bd fb36 cdbd 27c8 9cbc fa77 3fbc
00000040: f606 cebc edc0 a8bd e74f 4dbd f754 613d
00000050: 6579 7d3c 6825 93bd 61b6 1ebd dd03 88bc
00000060: b948 6bbd 5063 c1bd 4a4b d3bc 27d5 ecbd
00000070: 92ce 6cbd 9722 4ebd c815 90bd bbed 653d
00000080: 49f1 bebc 8eb7 1dbd 5df1 55bd 6da2 a7bc
00000090: f75f 8cbd 780f bfbd f864 38bd bc4d 84bd
000000a0: 10e8 04be 8067 423c 8ca2 7cbc 4854 00bd
000000b0: 8152 b43d cf9c ab3b 3e47 15bd b896 06bd
000000c0: 4360 61bd 0000 0000 9125 ea3a c767 bbbd
000000d0: 104e 3c3c 56cd 2cbc b85f b2bc c982 d63c
000000e0: 67a3 6cbd 7c23 10bd 0000 0000 348f 8dbd
000000f0: 614e 67bd f392 20bd 7bf2 89bd a73d 93bd
00000100: 0000 0000 6541 aabd 4361 123a 0000 0000
00000110: 03a6 b3bc 5f68 8ebd a71a acbd a615 1cbd
00000120: fb4c 8ebd 595f 593c d6b4 00bd 9400 99b7
00000130: ba9d 27bd 8045 d2bc 0000 0000 6522 00bd
00000140: b4e5 073d 3ca9 31bd 40db aa3c 40f3 5abd
00000150: 6715 d9bc ab45 8ebd 0000 0000 4506 5dbd
00000160: 88b2 3ebd b931 303d 03e0 c23d 05e9 463c
00000170: 7721 e4bc 329b 14bd 38fa 16bd 4082 e0bd
00000180: 6ffc 55bd ed59 2bbc d248 843d caa6 8fbb
00000190: f0d3 cdbd 8712 75bd 3fd0 833b ee54 06bd
000001a0: 5850 22bd 0570 80bd dc01 b4bd 0000 0000
000001b0: 9e53 9fbd 0532 8abc 2399 6fbd 7f12 77bd
000001c0: 94b6 b4bd 684f a0bc 6e47 6bbd 9463 47bd
000001d0: 067b e83c 7557 58bd e035 69bd 8ecc bfbd
000001e0: 472b cfbc 473a a33b c265 b4bc 4bd5 dcbc
000001f0: bac1 e5bd 14ed a0bd 3cd6 b6bd fe7f 36bd
00000200: 1c80 74bd f552 97bc 0000 0000 4824 143d
00000210: f850 86bc 1238 a9bc 30b2 9abd 178d 4bbd
00000220: cc8e 74bb 28cc bcbc defb 8fbd 0000 0000
00000230: 1cf9 53bd 1a9a 36bc f7a9 b1bd 0000 0000
00000240: 15d9 4ebb 0000 0000 eb8f e7bd 369f 33bd
00000250: 0000 0000 5c44 ddbc 0000 0000 daca 03bd
00000260: 523f 813b e6eb a2bd 0000 0000 e5fa 86bd
00000270: 1eb7 13bd ad12 0dbc 0fd4 203c 4aa8 5abd
00000280: 26d2 b2bd 3a57 58bd 48c3 32bd a0ea 52bd
00000290: 9836 88bd 5480 0fbd 0e0e 5dbd 3d44 9bbd
000002a0: c640 22bd d158 e03a d940 0ebd 00f1 f5bc
000002b0: 325f 77bc fe92 83bd bd05 73bc c144 4a3b
000002c0: 329d 0fbd 2d45 41bc 4b3d 993b 6c58 913c
000002d0: 0000 0000 70f9 1fba d9ba bbbc 79b9 e8bc
000002e0: 280c ea3c 33c3 cebc 0000 0000 37b2 2cbc
000002f0: e430 07be 5e78 55bc 35d2 a8bd 6921 d5bc
00000300: f7ab 2ebd 96c4 483b 49e4 72bd 8460 193c
00000310: f741 44bd bb50 5fbd 0472 adbd f4fc f2bc
00000320: 424c fabc 18ac 6abd 9202 4abd 5217 7fbc
00000330: 0000 0000 e6ce 55bc 1b81 8cbd d7ff da3d
00000340: 00fb 7ebd 581c cbbd a985 74bc 9872 93bc
00000350: 3b03 77bd 0000 0000 9272 8cbc 0000 0000
00000360: fc68 553b 18cf 89bd 3f2b a0bd e5b3 2f3d
00000370: 5daf c1bd d044 a5bd ea3e a2bd 0000 0000
00000380: 16a7 84bd c966 293b 74aa 02bd 8f12 c73a
00000390: dd92 0c3d 1fc4 c7bc 6632 d4bc 1ff0 85bd
000003a0: 0000 0000 0000 0000 35a4 afbd 8d4c d339
000003b0: a1d7 923c 0000 0000 12c4 babc e949 b6bb
000003c0: 0000 0000 e9e4 14bd 1a0d a8bc 8b0a 59bc
000003d0: bec1 38bd 40cb 38bd b689 afbd ba05 8dbd
000003e0: def8 783b e9ba babd 62fd 31bd 528e 983d
000003f0: 0000 0000 e104 5cbd 756a 7ebd 5c05 6cbd

model_1/dense_3/Tensordot/MatMul1 f4 [256, 6]
0.711125 -0.3094414 -0.020272931 0.108478665 0.2039697 0.13593824 -0.04081554 -0.15095519
-0.120098114 0.05202055 -0.12518321 -0.06054496 0.56293637 -0.20174289 0.038001433 -0.102826335
0.052217588 0.07204601 -0.08934847 -0.035080746 -0.07956901 -0.0075457925 0.091038786 -0.14411546
-0.123319454 0.07581459 0.042599916 -0.11474932 -0.074658506 -0.20276545 0.02131655 0.00845563
-0.17729628 0.11338976 -0.036532424 -0.17524046 -0.16016859 0.029217511 -0.15544398 -0.07980394
0.12247607 0.06267598 0.77626795 -0.21130668 -0.06831867 0.052695658 0.097431324 0.37628275
0.21289437 -0.07077521 -0.054629404 -0.21684183 0.068110414 -0.15391783 0.72947 -0.2934093
0.0808334 0.05939993 -0.009370281 0.27841735 0.041307062 -0.028199507 0.0013417075 0.043864634
-0.07926882 0.026166366 0.12699996 -0.030322641 -0.115917236 -0.1249965 0.048673294 -0.023651034
0.18432383 -0.0896695 0.0795163 -0.5633325 -0.26943088 0.23714979 0.24802247 -0.11862823
-0.016922273 -0.089525566 -0.00015782035 0.10401273 0.105222814 -0.16824853 -0.010477055 -0.08701958
-0.012697058 -0.08229206 0.70607585 -0.2882932 0.0918369 0.08025936 0.0053326236 0.28090638
-0.13054973 0.05926472 -0.082346745 0.03611892 -0.05475571 -0.114285044 0.07528134 -0.008199701
0.0010170144 0.030093195 -0.022757303 -0.05176918 0.47578275 -0.1426168 0.04713589 -0.2330065
-0.13573939 0.20392254 0.7886385 -0.12929614 -0.02585686 -0.06624594 0.0067275953 0.3356309
0.6738146 -0.2679641 -0.03676075 0.02530666 0.14024146 0.21961989 0.01646602 -0.0050450377
-0.03150521 -0.19328779 0.041190468 -0.07203306 0.54884917 -0.30970255 0.1069992 0.014947698
0.13488534 0.2660979 0.014103514 -0.104447536 -0.08675565 0.037189946 0.041565593 -0.033776112
0.078968726 0.040205482 -0.16133568 0.021322403 0.018122775 -0.0603838 0.30491954 -0.22671863
0.007650507 -0.07071654 -0.00037234506 0.120086454 -0.0048972773 0.024613736 -0.061807584 0.120739736
-0.15974902 -0.18500832 0.43042433 -0.1658843 0.021793826 -0.18405114 -0.077567205 0.08117245
-0.04734509 0.007967699 -0.0046095415 -0.08231609 0.043863397 -0.12016601 0.3390422 -0.086649574
0.02312226 -0.23596385 -0.24213105 0.15385301 0.37278852 -0.06657489 -0.1710986 -0.30933994
-0.1133338 0.2869159 0.7840375 -0.27671832 -0.0018091808 -0.0064535677 0.17834948 0.21584767
0.39025974 -0.029594885 -0.109175324 -0.41931513 -0.19731931 0.24359065 -0.07547264 -0.10715329
-0.10068607 -0.06824899 0.04164126 -0.0390639 -0.019349994 0.09794086 -0.13978536 -0.040276285
-0.057579037 -0.0864726 -0.048156723 0.084563866 -0.13102525 0.00025816448 0.0775027 -0.08451498
0.25515547 -0.21064451 0.018044965 -0.116195574 0.027160168 0.00049979624 0.3174717 -0.27528253
0.025533672 -0.026074331 -0.018656015 0.0410283 0.47401932 -0.37033167 0.09495208 -0.010785157
0.044230197 0.003121058 0.5748128 -0.10052967 -0.073865935 -0.047845613 -0.17775837 0.1811474
0.13300833 -0.14551967 -0.10317016 -0.17091794 -0.009565383 0.21448046 0.11843554 0.019223994
-0.205521 -0.045492027 -0.025262063 -0.16156805 0.022548424 0.007176256 -0.045960616 0.028837344
00000000: 4a0c 363f 1a6f 9ebe 6b13 a6bc 102a de3d
00000010: 6fdd 503e 6533 0b3e 322e 27bd ff93 1abe
00000020: 00f6 f5bd 8013 553d 0730 00be fefd 77bd
00000030: 991c 103f b095 4ebe 64a7 1b3d 9d96 d2bd
00000040: 1ce2 553d dc8c 933d 55fc b6bd d4b0 0fbd
00000050: 14f5 a2bd b242 f7bb 8b72 ba3d 0193 13be
00000060: e98e fcbd ae44 9b3d 407d 2e3d b101 ebbd
00000070: 8fe6 98bd bfa1 4fbe 0ca0 ae3c 7c89 0a3c
00000080: 288d 35be e438 e83d 06a3 15bd 3c72 33be
00000090: 3c03 24be 9059 ef3c b52c 1fbe 4070 a3bd
000000a0: bcd4 fa3d 445c 803d 7fb9 463f c760 58be
000000b0: a9ea 8bbd 67d7 573d 138a c73d 22a8 c03e
000000c0: fb00 5a3e 98f2 90bd 15c3 5fbd c90b 5ebe
000000d0: 797d 8b3d a39c 1dbe 8cbe 3a3f be39 96be
000000e0: fb8b a53d 574d 733d cf85 19bc b88c 8e3e
000000f0: 9831 293d a702 e7bc 3cdc af3a 67ab 333d
00000100: b157 a2bd d95a d63c 470c 023e 3067 f8bc
00000110: 0466 edbd 2afe ffbd a65d 473d d0bf c1bc
00000120: 63bf 3c3e a5a4 b7bd 71d9 a23d 8f36 10bf
00000130: d8f2 89be 65d7 723e 9af9 7d3e 5cf3 f2bd
00000140: 94a0 8abc 2e59 b7bd 947c 25b9 a004 d53d
00000150: 0f7f d73d 5849 2cbe f4a7 2bbc 5237 b2bd
00000160: 5207 50bc bd88 a8bd 63c1 343f 2b9b 93be
00000170: fc14 bc3d 055f a43d 4abd ae3b f6d2 8f3e
00000180: d4ae 05be 90bf 723d 69a5 a8bd 6ff1 133d
00000190: 8647 60bd 470e eabd 1a2d 9a3d 0a58 06bc
000001a0: 574d 853a 0186 f63c 866d babc eb0b 54bd
000001b0: cc99 f33e 230a 12be 9011 413d 4299 6ebe
000001c0: 44ff 0abe 12d1 503e 36e4 493f 3566 04be
000001d0: c4d1 d3bc f4ab 87bd 2973 dc3b d0d7 ab3e
000001e0: 1d7f 2c3f 9732 89be 7192 16bd ea4f cf3c
000001f0: 759b 0f3e 09e4 603e bfe3 863c d850 a5bb
00000200: 9b0b 01bd 3ced 45be 56b7 283d 1286 93bd
00000210: 6181 0c3f 5591 9ebe 6622 db3d 31e7 743c
00000220: 621f 0a3e fc3d 883e 6d12 673c 97e8 d5bd
00000230: f2ac b1bd 7c54 183d af40 2a3d d258 0abd
00000240: 5bba a13d 81ae 243d 2e35 25be 52ac ae3c
00000250: 3776 943c 0155 77bd 6a1e 9c3e ee28 68be
00000260: 1bb1 fa3b d5d3 90bd 4f37 c3b9 e3ef f53d
00000270: 5779 a0bb bfa2 c93c f329 7dbd 6546 f73d
00000280: 3f95 23be d272 3dbe 9460 dc3e 93dd 29be
00000290: f788 b23c e777 3cbe 8edb 9ebd be3d a63d
000002a0: edec 41bd f48a 023c a30b 97bb 5795 a8bd
000002b0: 1baa 333d 9919 f6bd f096 ad3e 5575 b1bd
000002c0: e56a bd3c 82a0 71be 34f1 77be a58b 1d3e
000002d0: 23de be3e 6a58 88bd 7934 2fbe ce61 9ebe
000002e0: 8d1b e8bd a4e6 923e aeb6 483f 06ae 8dbe
000002f0: 0922 edba 7378 d3bb 3fa1 363e 2c07 5d3e
00000300: 20d0 c73e f970 f2bc 5097 dfbd 79b0 d6be
00000310: 130e 4abe d46f 793e 6691 9abd 2f73 dbbd
00000320: 8034 cebd 20c6 8bbd 0790 2a3d 7801 20bd
00000330: e183 9ebc 3895 c83d e523 0fbe bff8 24bd
00000340: ffd7 6bbd 8c18 b1bd fc3f 45bd d22f ad3d
00000350: 7c2b 06be 405a 8739 bcb9 9e3d 3116 adbd
00000360: bda3 823e 32b3 57be 09d3 933c f2f7 edbd
00000370: 007f de3c c204 033a a78b a23e d5f1 8cbe
00000380: fe2b d13c d699 d5bc 80d4 98bc 4a0d 283d
00000390: a9b2 f23e 1d9c bdbe 3c76 c23d 3ab4 30bc
000003a0: b92a 353d aa8a 4c3b ef26 133f 80e2 cdbd
000003b0: 0647 97bd c3f9 43bd 4a06 36be b47e 393e
000003c0: 5633 083e 1c03 15be e04a d3bd 1d05 2fbe
000003d0: 20b8 1cbc c4a0 5b3e 558e f23d a37b 9d3c
000003e0: 1974 52be d955 3abd 63f2 cebc 1872 25be
000003f0: 79b7 b83c cc26 eb3b 3341 3cbd 4b3c ec3c

model_1/dense_4/Tensordot/MatMul f4 [256, 256]
-0.23223239 0.06345869 -0.030035324 -0.02243819 0.07230078 0.076000504 -0.02839233 -0.15622447
-0.15739952 -0.12546657 0.032145154 -0.0842693 0.16007635 0.08266659 -0.07428253 -0.052115384
-0.015045479 0.087130494 0.0852979 -0.16898635 -0.19481255 0.0019635002 -0.050274145 0.05958634
-0.0323674 0.04169057 -0.18524945 0.015305691 -0.0324555 0.035541542 -0.07134687 -0.25564766
0.01835553 0.09214289 -0.044261187 -0.006798105 0.001948964 0.032650806 -0.1358822 -0.08869473
-0.10855763 -0.039337084 -0.0448697 0.0041469056 -0.17212828 -0.14967251 0.0918136 -0.108909294
-0.047128588 -0.057659738 -0.05560498 0.041486967 -0.15659468 0.0025025755 -0.00026313664 -0.25251496
-0.06302149 -0.049654298 -0.0082523 -0.014628378 -0.04227482 -0.07178116 0.15014209 0.030511908
-0.058965854 0.117272176 -0.012801394 -0.050822187 -0.009717923 -0.10197758 0.08265764 0.051592506
-0.08934126 -0.014428886 0.103474565 -0.18715759 0.052518286 -0.26904982 -0.00046400726 -0.011136182
0.023778303 0.002540797 -0.11302163 -0.06216684 -0.096971944 -0.026133865 0.007950224 -0.08124962
0.09016312 -0.089015335 -0.12595263 0.16782439 0.001063332 0.10659925 -0.02126272 -0.110462695
-0.08723681 0.013240129 -0.4363977 0.0049083987 0.055744484 -0.09630016 -0.06340589 -0.08620246
-0.007312155 -0.1231397 -0.062617734 -0.002147898 0.18751745 -0.029456533 -0.003315136 -0.12055661
0.052266132 -0.05884455 -0.039313372 0.13656503 -0.020558503 0.025738513 -0.08650259 -0.13898677
0.055011027 -0.13048565 0.01825007 0.060854107 -0.12904802 0.06641535 -0.049142804 -0.056764215
0.009042414 -0.13130012 -0.092639804 -0.110136114 0.061735325 -0.083122864 0.09584578 -0.14541386
0.10371184 0.045561094 0.07839522 0.0557049 -0.03851206 0.05829847 -0.13007176 -0.058210123
-0.10065522 -0.10706113 -0.17870225 -0.040689852 0.09699661 0.016960727 0.086610995 -0.0041008294
-0.06496797 -0.058162007 -0.08455661 -0.007935912 0.014024463 0.087196045 0.037491996 0.023297414
-0.08373969 -0.025149947 0.10553491 0.11297175 0.029857285 -0.038541712 -0.16903496 0.044033684
0.025089277 0.008679891 0.10406179 0.037670128 0.02355332 0.08256693 -0.18410152 -0.15143366
0.054237586 0.0793625 -0.1077518 0.019934636 -0.007578492 0.0047223973 -0.098179586 0.026109897
-0.1022505 -0.10992535 0.039040945 0.011562333 -7.741375e-06 0.035338156 -0.113782704 0.09502804
0.09155944 0.058361977 0.20949504 -0.1365575 0.062931284 -0.05670937 -0.002053532 0.037561227
0.090561755 -0.2099191 0.0654336 0.036641024 -0.009483986 -0.089638844 -0.06982252 0.12267472
-0.016050078 0.20381422 0.07980683 0.087891035 -0.13578832 -0.08591007 0.078933276 -0.013909087
0.045129545 -0.025012773 0.061934512 -0.16051815 -0.07875012 -0.10123615 0.10409384 -0.060802594
-0.145463 -0.029911524 -0.049579695 -0.123256005 -0.06556634 -0.28723577 0.2769005 -0.14073905
-0.006366603 0.0060047507 -0.026818944 0.043243084 -0.04262412 0.08622574 0.046653055 -0.17930384
0.03351692 0.049589306 -0.09013049 0.05826255 -0.23685987 -0.002025403 -0.2031267 -0.015873857
0.00045112538 0.082839675 -0.08903715 0.08005174 -0.10133107 -0.008926145 0.2065749 -0.068549834
00000000: 54ce 6dbe a1f6 813d a40c f6bc 4cd0 b7bc
00000010: 6e12 943d 27a6 9b3d 0897 e8bc 4ff9 1fbe
00000020: 572d 21be 4f7a 00be a3aa 033d 6295 acbd
00000030: 0eeb 233e 1a4d a93d 7021 98bd f176 55bd
00000040: 5081 76bc 7971 b23d aab0 ae3d c20a 2dbe
00000050: f17c 47be 11ae 003b 43ec 4dbd ce10 743d
00000060: ae93 04bd bbc3 2a3d 08b2 3dbe b9c4 7a3c
00000070: 0ff0 04bd 0294 113d 4f1e 92bd 40e4 82be
00000080: 565e 963c 69b5 bc3d 384b 35bd a3c2 debb
00000090: 6174 ff3a dabc 053d b424 0bbe 95a5 b5bd
000000a0: 7653 debd ec1f 21bd 4ac9 37bd c4e2 873b
000000b0: 6542 30be c043 19be c508 bc3d d60b dfbd
000000c0: e809 41bd 9e2c 6cbd 0cc2 63bd 3dee 293d
000000d0: 5b5a 20be 4002 243b 9af5 89b9 a449 81be
000000e0: 6911 81bd 4e62 4bbd a834 07bc ddab 6fbc
000000f0: 5d28 2dbd 0002 93bd d9be 193e 1cf4 f93c
00000100: 2e86 71bd 652c f03d f0bc 51bc ed2a 50bd
00000110: ec37 1fbc 9fd9 d0bd 6948 a93d aa52 533d
00000120: 8df8 b6bd 2267 6cbc 79ea d33d 3da6 3fbe
00000130: 6a1d 573d e6c0 89be 0046 f3b9 8874 36bc
00000140: b7ca c23c 8083 263b e277 e7bd a8a2 7ebd
00000150: 3a99 c6bd b016 d6bc a841 023c 3366 a6bd
00000160: 71a7 b83d ac4d b6bd baf9 00be 28da 2b3e
00000170: 805f 8b3a b550 da3d 282f aebc 443a e2bd
00000180: 36a9 b2bd 20ed 583c 856f dfbe a2d6 a03b
00000190: 5454 643d 0539 c5bd f2da 81bd ea8a b0bd
000001a0: cd9a efbb ab30 fcbd ba3d 80bd c0c3 0cbb
000001b0: 9304 403e d44e f1bc c142 59bb 62e6 f6bd
000001c0: 0315 563d fc06 71bd 0f07 21bd b4d7 0b3e
000001d0: 4e6a a8bc 93d9 d23c 4528 b1bd 8c52 0ebe
000001e0: 3e53 613d 089e 05be 2c81 953c 2842 793d
000001f0: 2a25 04be c504 883d f749 49bd 9881 68bd
00000200: a226 143c 8a73 06be f0b9 bdbd 0b8f e1bd
00000210: 2ede 7c3d 523c aabd cb4a c43d 5fe7 14be
00000220: e066 d43d 459e 3a3d ac8d a03d d22a 643d
00000230: d2be 1dbd 60ca 6e3d 8831 05be bd6d 6ebd
00000240: 5324 cebd de42 dbbd b9fd 36be 67aa 26bd
00000250: 29a6 c63d 39f1 8a3c 1b61 b13d 4060 86bb
00000260: ed0d 85bd 493b 6ebd 042c adbd a105 02bc
00000270: dcc6 653c d793 b23d 3591 193d 38da be3c
00000280: b77f abbd 4307 cebc b022 d83d bc5d e73d
00000290: 4497 f43c eadd 1dbd 8017 2dbe aa5c 343d
000002a0: 0788 cd3c 1a36 0e3c 591e d53d fe4b 1a3d
000002b0: e4f2 c03c da18 a93d 1c85 3cbe 6d11 1bbe
000002c0: 3b28 5e3d ce88 a23d faac dcbd f64d a33c
000002d0: 0055 f8bb 57be 9a3b 6112 c9bd 6ce4 d53c
000002e0: b668 d1bd 8b20 e1bd 66e9 1f3d f16f 3d3c
000002f0: f4e0 01b7 bebe 103d e806 e9bd 109e c23d
00000300: 8483 bb3d f80c 6f3d de85 563e bbd5 0bbe
00000310: 1ee2 803d 1648 68bd 8d94 06bb cdd9 193d
00000320: 7178 b93d 08f5 56be 0d02 863d e614 163d
00000330: b862 1bbc 9294 b7bd 1cff 8ebd e23c fb3d
00000340: 747b 83bc adb4 503e c371 a33d 3700 b43d
00000350: 180c 0bbe 9ef1 afbd c5a7 a13d f0e2 63bc
00000360: c2d9 383d 96e7 ccbc 0baf 7d3d df5e 24be
00000370: be47 a1bd e654 cfbd 272f d53d 240c 79bd
00000380: 41f4 14be 0309 f5bc 1414 4bbd a56d fcbd
00000390: a547 86bd 9110 93be e7c5 8d3e e61d 10be
000003a0: f09e d0bb 80c3 c43b 67b3 dbbc a91f 313d
000003b0: a196 2ebd 1f97 b03d 4617 3f3d 6d9b 37be
000003c0: 0a49 093d 281e 4b3d 5696 b8bd b6a4 6e3d
000003d0: 658b 72be a0bc 04bb 7200 50be e409 82bc
000003e0: 0685 ec39 d9a7 a93d 1c59 b6bd 2bf2 a33d
000003f0: aa86 cfbd f73e 12bc 5f88 533e db63 8cbd

model_1/dense_5/Tensordot/MatMul f4 [1, 256]
-0.062604286 -0.018900577 -0.08094587 -0.00035192948 -0.04966562 -0.036120962 0.46548313 0.009472605
0.17997654 -0.106421806 -0.0017122674 0.17245395 0.09657842 -0.04977919 -0.0021991879 -0.107632525
0.00213634 0.10886685 -0.0030044788 0.07189009 -0.023949815 -0.00057864713 -0.0018501517 -0.0039817193
0.20655993 -0.076910995 -0.1789229 0.012702623 -0.10006288 -0.03473294 0.15933287 0.13160792
-0.0071327207 -0.07512003 0.04474648 -0.003473484 0.17762509 -0.0114808045 -0.067497775 -0.013676023
-0.12725626 -0.031232396 -0.0006893983 -0.07155476 -0.0033498157 -0.07200865 0.12767409 -0.012020241
-0.0024506007 -0.05977617 0.003415654 0.027405243 -0.1381251 0.017576193 0.16986962 -0.101913735
0.082056224 -0.0507131 -0.015357 -0.07243627 -0.08630003 -0.07546234 0.22396195 -0.053638093
-0.060229413 -0.07236684 -0.013234637 -0.026472304 0.07245783 0.078193314 -0.102507144 -0.02609089
0.21248782 -0.03079791 -0.022456303 0.08245582 0.0009274339 0.15100016 0.0023011288 0.0037108005
-0.01650428 -0.06816464 -0.035604876 -0.025187548 0.0024353003 -0.024639063 0.128648 -0.06827803
0.16153525 -0.15484643 0.00028001473 -0.08248931 -0.01921627 -0.0003535788 -0.11166066 0.005199221
-0.06986992 0.37497586 -0.07773152 -0.0073781265 0.007801381 -0.04764986 -0.008611901 -0.0054464363
-0.061820827 -0.00077736506 -0.005547809 -0.0012924199 0.023891624 -0.087680854 -0.1011902 0.023859728
-0.01153828 -0.0050338716 0.023549475 -0.026063291 0.0004768077 -0.08087002 0.15472177 -0.05372035
0.00018055379 -0.053515654 0.004193854 -0.012247183 -0.037871014 -0.09669617 -0.044404782 0.00065820967
-0.12044142 -0.0041235783 -0.0046052565 0.06951564 -0.0008752791 0.0059132464 -0.0511437 -0.09126254
-0.11373754 0.076663114 -0.073331244 0.018947665 -0.064061485 -0.07194838 -0.022413371 0.07376536
-0.003646697 0.08586081 -0.03453987 -0.046048675 -0.014472644 0.020521116 -0.09230517 -0.08899038
0.18311387 -0.03415915 -0.13627143 0.0016947561 0.09708297 0.088160425 -0.017258529 0.080700114
-0.011545165 0.12444646 -0.1241504 0.03091905 -0.11214625 -0.011110937 -0.06736452 0.20892274
-0.01891737 -0.08237244 0.10269841 0.040226597 0.15698017 -0.0012003296 0.07363466 -0.12592976
0.16694349 -0.08464458 -0.09115592 -0.004269841 0.008072592 -0.12353599 0.18681772 0.11354223
-0.0059133437 -0.024716998 0.012398496 -0.117104165 -0.101648405 0.22676295 -0.030713648 0.118435316
-0.042700447 0.0489742 -0.047749564 0.17936689 -0.00801811 -0.039244372 0.035063617 0.095292635
-0.10095429 0.1130413 -0.013023235 0.17690557 -0.011678776 -0.023183562 0.01831767 0.004151813
-0.020107564 -0.008746372 0.010984053 -0.0333248 -0.0059244544 -0.024269773 -0.0055252565 0.14208125
0.05984765 -0.00021559272 0.11573494 0.14076033 -0.004043566 7.632865e-05 0.0017718703 -0.060079638
0.013702881 -0.0923925 -0.044960033 0.009125603 -0.025787804 -0.07967089 -0.014717596 0.17319196
0.17653981 -0.010681143 -0.026225777 -0.025960458 -0.11283129 0.21092366 0.00127435 0.004994007
0.0034717761 -0.08645552 -0.003436048 -0.0007323106 -0.0926976 0.0021467768 -0.014158677 -0.065369025
0.34627527 0.17750257 0.0022290181 0.10254819 0.12733603 0.16446221 0.009641718 -0.04586392
00000000: ad36 80bd 62d5 9abc f3c6 a5bd 2d83 b8b9
00000010: 2d6e 4bbd 93f3 13bd ce53 ee3e fc32 1b3c
00000020: c54b 383e adf3 d9bd 296e e0ba c597 303e
00000030: e8ca c53d 44e5 4bbd 4020 10bb 716e dcbd
00000040: d601 0c3b 95f5 de3d cae6 44bb 1d3b 933d
00000050: 6732 c4bc 5ab0 17ba ca80 f2ba 1579 82bb
00000060: 7284 533e 8383 9dbd 9137 37be aa1e 503c
00000070: c4ed ccbd 2144 0ebd 2828 233e 3ac4 063e
00000080: 99b9 e9bb 88d8 99bd 1648 373d 64a3 63bb
00000090: 5ae3 353e fc19 3cbc 463c 8abd 6611 60bc
000000a0: 774f 02be 15db ffbc bdb8 34ba 4d8b 92bd
000000b0: 9588 5bbb 4579 93bd ffbc 023e 8bf0 44bc
000000c0: 429a 20bb dbd7 74bd 2ad9 5f3b f680 e03c
000000d0: ab70 0dbe f3fb 8f3c 4df2 2d3e 26b8 d0bd
000000e0: 180d a83d 8ab8 4fbd ed9b 7bbc 7859 94bd
000000f0: 12be b0bd 008c 9abd 4856 653e 9eb3 5bbd
00000100: 1eb3 76bd 1135 94bd 17d6 58bc 72dc d8bc
00000110: c564 943d d123 a03d 44ef d1bd 90bc d5bc
00000120: 6896 593e e64b fcbc 48f6 b7bc 99de a83d
00000130: 091f 733a c99f 1a3e 89ce 163b e730 733b
00000140: fc33 87bc e799 8bbd 6bd6 11bd 1e56 cebc
00000150: 8f99 1f3b dcd7 c9bc 4dbc 033e 5ad5 8bbd
00000160: 7f69 253e 1090 1ebe f1ce 9239 28f0 a8bd
00000170: 706b 9dbc 8b60 b9b9 58ae e4bd 3a5e aa3b
00000180: f617 8fbd d6fc bf3e b431 9fbd 36c4 f1bb
00000190: baa2 ff3b 802c 43bd ee18 0dbc 0578 b2bb
000001a0: d637 7dbd 16c8 4bba 65ca b5bb 6a66 a9ba
000001b0: 5eb8 c33c 0592 b3bd cf3c cfbd 7a75 c33c
000001c0: 0e0b 3dbc 2df3 a4bb d4ea c03c af82 d5bc
000001d0: 0cfc f939 2e9f a5bd 626f 1e3e df09 5cbd
000001e0: 0a53 3d39 3b33 5bbd 996c 893b 69a8 48bc
000001f0: a31e 1bbd a408 c6bd cae1 35bd b48b 2c3a
00000200: fea9 f6bd 151f 87bb b1e7 96bb 375e 8e3d
00000210: fc72 65ba e8c3 c13b 0e7c 51bd dbe7 babd
00000220: 3aef e8bd 8d01 9d3d b12e 96bd 2238 9b3c
00000230: ab32 83bd ac59 93bd 3f9c b7bc 4b12 973d
00000240: 6cfd 6ebb cbd7 af3d ae79 0dbd 899d 3cbd
00000250: ab1e 6dbc e61b a83c 7e0a bdbd 9740 b6bd
00000260: 3482 3b3e 77ea 0bbd bd8a 0bbe 9422 de3a
00000270: 70d3 c63d 748d b43d c261 8dbc 1a46 a53d
00000280: ef27 3dbc c9dd fe3d 9142 febd f349 fd3c
00000290: efac e5bd a60a 36bc 69f6 89bd d8ef 553e
000002a0: 9af8 9abc e2b2 a8bd 8b53 d23d a5c4 243d
000002b0: 69bf 203e 6154 9dba c5cd 963d bbf3 00be
000002c0: 3cf3 2a3e 235a adbd f4af babd 06ea 8bbb
000002d0: e842 043c 7000 fdbd 254d 3f3e d488 e83d
000002e0: b9c4 c1bb 4d7b cabc 1023 4b3c 4fd4 efbd
000002f0: 0a2d d0bd 8c34 683e 309b fbbc 378e f23d
00000300: aae6 2ebd 2c99 483d 0c95 43bd f4ab 373e
00000310: 645e 03bc b5be 20bd de9e 0f3d c928 c33d
00000320: 1fc1 cebd 3282 e73d 685f 55bc bc26 353e
00000330: 5658 3fbc 74eb bdbc f00e 963c ef0b 883b
00000340: 9eb8 a4bc f14c 0fbc 75f6 333c 967f 08bd
00000350: ed21 c2bb 67d1 c6bc 360d b5bb bf7d 113e
00000360: cf22 753d bb10 62b9 7106 ed3d 7a23 103e
00000370: e47f 84bb a212 a038 1a3e e83a 1116 76bd
00000380: 0c82 603c 4738 bdbd 0328 38bd 8e83 153c
00000390: f240 d3bc 7e2a a3bd 1222 71bc 3c59 313e
000003a0: dac6 343e f6ff 2ebc 71d7 d6bc 07ab d4bc
000003b0: 1714 e7bd 5ffc 573e 1708 a73a c4a4 a33b
000003c0: bd86 633b 970f b1bd 522f 61bb 88f8 3fba
000003d0: 3dd8 bdbd f0b0 0c3b ccf9 67bc 32e0 85bd
000003e0: fe4a b13e 3cc3 353e b814 123b c904 d23d
000003f0: 6064 023e c868 283e 4cf8 1d3c cedb 3bbd
